nvidia-modulus-pinn-training/jupyter_notebook/introduction/outputs/u_network.pth (torch, 12740 bytes, 10 tensors)

_impl.layers.0.linear.weight f4 [32, 1]
000000 eb 19 b6 be 3e 16 aa be 16 9b 33 bd 13 84 ec bc
       -0.3556665 -0.33220094 -0.043849073 -0.028871572
000010 da 30 ab bd 61 25 07 3e 62 eb d2 3e 84 95 46 3e
       -0.08358927 0.13197853 0.41195208 0.19392973
000020 8b b1 59 3e b9 23 cc be ce 22 b9 3e 71 05 ed bc
       0.21259134 -0.39871004 0.36159366 -0.028933259
000030 1a b1 90 be 89 1c 86 bd 5d 96 8b 3e 55 f0 a8 3c
       -0.28260118 -0.065484114 0.27263156 0.020622412
000040 ab 57 b0 3e 35 00 9a 3e 68 83 8a 3e 0e b7 89 3e
       0.34441885 0.30078283 0.2705338 0.26897472
000050 20 d6 43 be 45 11 60 3c 8f 62 88 3d e8 4f 9a 3e
       -0.19124651 0.013675992 0.066594236 0.3013909
000060 c2 12 bf be 35 96 23 3e 85 86 b2 3e 41 ab 8d 3c
       -0.37319 0.15975268 0.34868255 0.017293574
000070 6b dd a3 be 75 21 26 bd 9c 22 b7 3e 3f 5f d2 be
       -0.32004866 -0.04055925 0.35768592 -0.41088292

_impl.layers.0.linear.weight_g f4 [32, 1]
000000 f9 e5 7c 3f 28 59 7c 3f 00 49 81 3f c1 dd 81 3f
       0.9878841 0.9857354 1.0100403 1.0145799
000010 00 cd 80 3f 56 70 7c 3f 56 e7 7c 3f 9b cf 7b 3f
       1.0062561 0.9860891 0.9879049 0.98363656
000020 c4 8a 7c 3f 00 3d 81 3f 88 c0 81 3f b0 f0 80 3f
       0.9864924 1.0096741 1.0136881 1.0073452
000030 d9 25 81 3f 31 88 7e 3f 24 30 81 3f a9 64 7c 3f
       1.0089675 0.9942656 1.0092816 0.98591095
000040 64 cc 7d 3f d7 12 7b 3f 74 bc 80 3f 10 9e 81 3f
       0.9914 0.9807562 1.0057511 1.0126362
000050 ca 7c 81 3f d5 47 7c 3f 4c 59 81 3f 2b 52 81 3f
       1.0116208 0.98547107 1.0105376 1.0103201
000060 91 7b 79 3f af a5 7a 3f b8 bc 80 3f b6 a8 7c 3f
       0.9745417 0.97909063 1.0057592 0.9869493
000070 7f 1e 80 3f 2c 30 81 3f 69 e6 80 3f 2b 72 81 3f
       1.0009307 1.0092826 1.0070316 1.0112966

_impl.layers.0.linear.bias f4 [32]
000000 df 9f c9 bc 85 fa d0 bc 84 1e ab bb 16 20 14 3d
       -0.024612365 -0.025510082 -0.0052221436 0.036163412
000010 f2 37 b7 3c 70 66 4e bb 61 93 07 bc 71 90 92 bc
       0.022365544 -0.0031494163 -0.008274884 -0.01789114
000020 ce 68 38 bc 44 05 e8 3c 0e e7 73 3b 84 6b 8e 3c
       -0.011255456 0.028322823 0.0037216577 0.017385252
000030 f4 0f b3 3c f2 ff db 3c d7 68 f8 3b 30 3d d2 bc
       0.021858193 0.026855443 0.0075808573 -0.025663942
000040 e7 03 83 3c 7d 2a ed bc 3e 92 84 bc a7 d7 1c bc
       0.015993072 -0.028950924 -0.016183015 -0.0095729
000050 ce b7 12 3b 7d a3 1a bc 61 10 37 39 f5 c3 9b bc
       0.0022387388 -0.009438393 0.00017458342 -0.019014338
000060 5a 7d 51 bc b9 8c 78 bc b6 b1 cb 3b b6 60 00 bc
       -0.012786234 -0.01517027 0.006216253 -0.007835558
000070 95 3f a1 3c ef e8 8d bc 0e ae b3 bc a1 8a a4 3c
       0.019683639 -0.017322985 -0.021933582 0.020085635

_impl.layers.1.linear.weight f4 [32, 32]
000000 c4 0f 7c 3e b0 38 87 3d 6e fa 21 3e c4 79 44 3e
       0.24615389 0.06602609 0.15818188 0.19187075
000010 4c 50 9e be f1 0b 59 be 75 df 1b be 51 e4 84 3d
       -0.30920637 -0.21195962 -0.15221961 0.064888604
000020 2b 43 93 be a0 36 81 3b d0 f2 52 be a2 be ae bc
       -0.28762183 0.0039432794 -0.20600438 -0.021331135
000030 24 26 40 3e bf 93 bb bd c0 71 1a bd 98 78 b9 bd
       0.1876455 -0.0915904 -0.037706137 -0.090562046
000040 07 0f 77 bd 56 1c 35 3e 7d 85 8f be fd cb 06 be
       -0.060317066 0.1768659 -0.2803153 -0.13163753
000050 c6 78 89 3e 24 69 f3 bd 03 8a 91 3e 75 fc 60 bd
       0.26849955 -0.11885288 0.28425607 -0.05492826
000060 ff 66 e5 3d fd 86 88 be 1d e5 a7 3d 61 e9 09 3e
       0.112012856 -0.26665488 0.08197997 0.13467933
000070 04 d3 9b be c6 9a 61 3e b0 d2 aa 3d e7 44 8f bc
       -0.3043443 0.22031698 0.08340967 -0.01748891
000080 5b 38 15 bd 02 dc 8b be 0a e0 58 be 2c 42 24 3e
       -0.036430698 -0.2731629 -0.21179214 0.16040868
000090 3d 29 04 be ea b6 21 3e 05 d0 86 3e e4 4e 97 3e
       -0.12906356 0.15792432 0.2633058 0.29552376
0000a0 28 38 93 be c7 82 60 3e 77 ec 01 be 89 95 62 3e
       -0.2875378 0.21924888 -0.1268786 0.22127356
0000b0 c5 55 f1 3d 97 f3 ad bc b9 f7 9a bc 03 4f 83 be
       0.11783937 -0.021234317 -0.018916951 -0.2564622
0000c0 51 71 b4 bd 2f b6 65 bd 9f 3d df 3b 4d e3 ee bd
       -0.08810676 -0.056081947 0.0068127657 -0.11664448
0000d0 ed 3d a0 3e 97 02 d3 3d 58 50 67 be 63 26 4e 3c
       0.31297246 0.10303228 -0.22589242 0.012582394
0000e0 29 1e 1e 3d e3 04 7a be 82 d8 87 bc d4 f5 06 3d
       0.03860298 -0.24415927 -0.016582731 0.032949284
0000f0 6e 36 82 be 4b 30 65 be 4a 49 83 3c 44 24 8f bd
       -0.25432152 -0.22381704 0.016026158 -0.06989339
000100 0a 79 3c bc 71 53 8c 3e 8f a5 be 3d 20 19 e1 bc
       -0.011503467 0.2740741 0.093089215 -0.0274778
000110 de b5 01 3e cf fc 1d be bb dc de bc 17 dc 5b be
       0.12667033 -0.1542847 -0.027204862 -0.21470676
000120 88 c8 f1 bc 4c ea 0a 3e 44 c4 47 3e 51 9f 6d 3e
       -0.029514566 0.1356594 0.19508463 0.23205306
000130 d3 1a bb bd 26 d2 65 be 8a 42 41 be f6 c8 b5 3d
       -0.09135976 -0.22443447 -0.18873039 0.08876221
000140 f0 70 36 be b4 3b c2 bd f6 bf 32 3e df 4c 04 3e
       -0.1781652 -0.09484044 0.1745604 0.12919949
000150 e8 e3 9d 3e fc bd 5a be a3 19 b3 bc 1d 17 ee bd
       0.3083794 -0.21361536 -0.02186281 -0.11625502
000160 26 4d dc 3d fd c0 5e be 4d 07 b9 ba 7f c2 bf 3d
       0.107569024 -0.21753307 -0.0014116556 0.09363269
000170 73 f5 22 be ca 43 0c be 67 25 e1 3c 65 7a bc 3d
       -0.15913944 -0.13697734 0.027483655 0.092030324
000180 e0 bf 17 bd ee 26 17 bd 61 38 db bd 49 20 09 be
       -0.03704822 -0.03690236 -0.10704113 -0.13391222
000190 29 95 60 be 9f a7 03 be 41 37 00 be 54 2b 06 bc
       -0.219319 -0.12856911 -0.12521078 -0.008189041
0001a0 33 d5 98 be 6a a9 60 3e bc ab 09 3e c7 2a 1e bc
       -0.29850158 0.21939626 0.13444418 -0.009653754
0001b0 9f 7c 87 3e 67 af 81 be 5f 59 10 be 27 80 13 3e
       0.26462266 -0.25329134 -0.14096592 0.14404355
0001c0 0b f2 8d be 2e f3 2c 3e df 8e f9 bc 63 2d 64 be
       -0.27723727 0.1688964 -0.030463634 -0.22282939
0001d0 ad 92 58 3e e0 75 de bc c4 06 57 bd dc aa c1 3d
       0.21149702 -0.027155817 -0.052496687 0.09456417
0001e0 cc 2b 60 be df 63 9f be c5 ce e6 bd 6c 63 20 3c
       -0.21891707 -0.31130883 -0.11269907 0.009789329
0001f0 a1 ed 90 bd a0 09 5e 3e bd b4 72 be 6c 89 05 be
       -0.07076574 0.21683359 -0.23701759 -0.13040704
000200 93 68 0b be 18 20 67 be 58 82 76 be 7a 59 78 be
       -0.1361411 -0.22570837 -0.2407316 -0.24252883
000210 b2 00 8f 3e c0 0a 7c be 89 60 62 be d1 6c 57 3e
       0.27930218 -0.24613476 -0.22107138 0.21037604
000220 6f 4c 7c 3e 1c 38 3e bd 12 14 86 bc cd 55 83 3d
       0.24638532 -0.04644023 -0.016366992 0.064128496
000230 81 96 90 be 38 61 f2 bd 18 39 93 3e fc c3 5e bd
       -0.28239825 -0.11834949 0.28754497 -0.054386124
000240 a1 f2 8f be 50 95 d7 bd 01 28 0c 3e d6 38 82 3d
       -0.281148 -0.10526526 0.13687135 0.06358497
000250 58 71 80 3e 1d c9 83 3d 94 ce 49 bd 39 18 b7 3d
       0.25086474 0.06434844 -0.049269274 0.08940167
000260 88 2e b1 b9 39 63 7c 3e 2f 32 6f 3d 85 8c 33 be
       -0.0003379474 0.24647225 0.05839747 -0.17534073
000270 9d 5d 1a bd fe 28 d9 bd b6 89 17 3e 1b d7 91 be
       -0.037686933 -0.10603522 0.14798626 -0.28484425
000280 f8 1d 92 3e 92 8b 94 bc 28 f5 69 3e 15 af 4c be
       0.2853849 -0.018132959 0.22847426 -0.19988663
000290 0d 28 23 3d e7 9e 93 3e e2 6c 51 be a8 3b 4b 3c
       0.039833117 0.2883217 -0.20451692 0.01240436
0002a0 63 df 69 3e f6 61 42 bd cf da d1 3d 30 28 97 be
       0.22839122 -0.047456704 0.102468126 -0.29522848
0002b0 2a 73 bb 3c 81 c9 cc 3d 1a 9e 26 3c 35 fd 82 3d
       0.022882063 0.09999371 0.01016953 0.06395952
0002c0 ba cf 71 be fb 49 5d be a8 e3 2c 3e 35 9c 91 be
       -0.23614398 -0.21610253 0.16883719 -0.2843949
0002d0 8d 7c 5c 3e 1b a4 61 be be b2 d4 3d 1e 31 1a be
       0.21531887 -0.22035258 0.10385655 -0.15057799
0002e0 6a ac 85 3e 65 01 09 3e 35 de 5b be 56 24 80 bd
       0.26108104 0.13379438 -0.21471484 -0.062569305
0002f0 ad 92 33 be 2f b8 8e 3d e2 58 33 3e 61 f5 ce bd
       -0.17536421 0.06968724 0.17514375 -0.10105396
000300 3c e0 85 be 21 a4 54 3e 0f f5 de 3d 4a 55 6c 3e
       -0.2614764 0.20765735 0.10886585 0.2307941
000310 02 28 29 3e 98 42 11 3e 9b 10 aa bd 78 db 8d 3e
       0.16519168 0.1418556 -0.083039485 0.27706504
000320 20 fd f7 3d 26 d3 2d bd 01 f8 9a be dd 97 c9 3d
       0.12108827 -0.042437695 -0.30267337 0.09843419
000330 e4 0e 98 3e 1a 74 6b bd c1 03 80 be 7a d5 52 be
       0.2969886 -0.05748377 -0.25002864 -0.20589247
000340 34 87 0b be 04 ba 83 be 14 f1 4c be dc 55 19 be
       -0.13625795 -0.25727856 -0.20013839 -0.14974159
000350 9a 27 5c be 91 e3 52 bd b3 ce b1 bc 5b b1 a3 be
       -0.21499482 -0.051486555 -0.021705007 -0.3197125
000360 e7 b2 6f bd 08 3a 03 be e7 6a 83 be e0 cc 8a 3e
       -0.058520224 -0.12815106 -0.25667498 0.27109432
000370 bf bf 8e 3e f0 f3 79 bd 43 4e 69 be 95 0d 98 3d
       0.27880666 -0.061023653 -0.2278376 0.074244656
000380 f1 13 60 3e f6 3a 7f be 1c 6b 2d 3e b6 c1 88 3e
       0.21882607 -0.24924836 0.1693539 0.2671029
000390 e3 07 6c 3e ca 01 55 be 7c 0d f2 bd 3f 6d 1d 3e
       0.23049884 -0.20801464 -0.11818978 0.15373705
0003a0 eb cb 07 be 0a 79 3b 3e 62 aa e8 3d 31 9c 81 3d
       -0.13261382 0.18307891 0.11360623 0.06328619
0003b0 92 74 df bc 86 79 35 3e 4e 25 4c 3d 4a 21 df 3d
       -0.027277265 0.17722139 0.049840264 0.10895021
0003c0 d9 18 39 be d6 3f 0a 3e bd b7 69 3e 9f e1 10 3e
       -0.18075885 0.13500914 0.22823997 0.14148568
0003d0 25 17 53 be 4d f8 66 3e 2c 6c 23 3e af 33 8b bd
       -0.20614298 0.22555657 0.15959233 -0.06796967
0003e0 38 ac 6b 3e ad ac 76 bd 74 12 9b 3e 3c 09 e6 3d
       0.23014915 -0.06022327 0.30287516 0.1123223
0003f0 e2 6c 07 3e 35 d7 6e bc 3e 2c 43 be 4f 1a 93 3e
       0.13225129 -0.014577677 -0.19059846 0.2873101

_impl.layers.1.linear.weight_g f4 [32, 1]
000000 b5 a3 7b 3f d7 db 80 3f 00 63 81 3f 37 81 82 3f
       0.9829667 1.006709 1.0108337 1.0195683
000010 6d b3 79 3f d9 62 7b 3f 7a 97 82 3f ab 0c 82 3f
       0.97539407 0.98197705 1.0202477 1.0160116
000020 1e 3f 81 3f b1 de 7b 3f 32 3f 7b 3f 64 ac 81 3f
       1.0097387 0.98386675 0.98143303 1.0130734
000030 61 90 7b 3f cc 05 80 3f 3b 5c 81 3f 3a 03 81 3f
       0.9826718 1.0001769 1.0106272 1.007911
000040 d2 45 7f 3f cb 21 7c 3f cd ce 81 3f 6f f0 7c 3f
       0.9971591 0.98489064 1.0141236 0.9880437
000050 cd 1d 82 3f 8a d6 7f 3f c5 8c 81 3f 14 61 7b 3f
       1.0165344 0.99936736 1.0121084 0.98195004
000060 06 8a 81 3f 6c 7d 81 3f 29 b9 7b 3f 06 49 81 3f
       1.0120246 1.0116401 0.98329407 1.010041
000070 8b 8e 7b 3f 82 3c 7d 3f 04 32 7c 3f 9f 07 81 3f
       0.9826438 0.9892045 0.9851382 1.0080451

_impl.layers.1.linear.bias f4 [32]
000000 ef f0 a8 bc 22 63 17 ba 67 ba 88 3c 18 42 b4 3c
       -0.020622699 -0.0005774965 0.016690446 0.022004172
000010 b2 ca a4 bc bc b7 f0 bb 12 19 7c 3c b8 1c 36 3c
       -0.020116184 -0.0073461216 0.015386837 0.0111152455
000020 a4 35 c5 3c 35 da b4 3c 0e 4f 85 bc 88 0f 72 bc
       0.02407343 0.022076705 -0.016273048 -0.014774211
000030 e6 7e 62 bb c2 79 69 3c 1e ab bb 3c 23 ad d3 3b
       -0.00345605 0.014250221 0.022908743 0.0064598485
000040 a8 6d 6b 3c 1a d6 86 bc 75 23 c0 3c ef a1 98 bb
       0.014369406 -0.016459513 0.023454407 -0.004657976
000050 a3 79 77 3c bb 5e 35 bc 87 f9 93 b9 63 b1 d6 bb
       0.015104684 -0.011069949 -0.00028223937 -0.006551908
000060 c4 c4 31 3c 8b 99 46 3b c7 96 a3 bc 80 b2 c9 3b
       0.010850135 0.003030392 -0.019969357 0.006155312
000070 e5 da 18 3c d2 d6 4d bc 15 56 77 bc 14 90 9f 3c
       0.009329532 -0.012563424 -0.015096207 0.019477881

_impl.layers.2.linear.weight f4 [32, 32]
000000 25 74 00 bd da 77 a3 bd 63 ac 9a 3c c8 00 8c 3e
       -0.031360764 -0.07981844 0.018881029 0.27344346
000010 1d 0d 2e 3e 80 7a 4d 3e c6 25 ee 3d 54 e1 3a be
       0.1699719 0.20066261 0.116282985 -0.18250018
000020 2b 30 74 bd 49 a0 93 3d ab f3 b6 3d 18 f4 2c bd
       -0.05961625 0.07208306 0.08933195 -0.042224973
000030 62 fb 85 3e 69 6f 52 3e 1e 16 b2 3d 10 65 06 be
       0.26168352 0.20550312 0.08695625 -0.1312449
000040 b5 40 67 3e 68 ad 5a be cf f0 00 3c 10 e1 19 3d
       0.22583278 -0.21355212 0.007869913 0.037568152
000050 c9 21 f7 bd 92 18 8d 3e aa 38 9d be b2 d7 88 be
       -0.12066991 0.27557808 -0.30707294 -0.26727062
000060 7e 2f 29 3e 87 e1 9a bd 83 3e ed 3d 75 fc 52 be
       0.16522023 -0.07562547 0.11584189 -0.20604117
000070 ee e4 16 3e 25 d7 f4 bd b3 55 31 3e a3 ae 8f 3d
       0.14735767 -0.11955098 0.17317848 0.07015731
000080 78 59 42 be b8 fc 58 3e d7 6c 50 be aa d4 3d 3e
       -0.18979442 0.21190155 -0.20354019 0.18538156
000090 40 45 7d be cb d6 5b 3e 3e 00 90 be 8b 01 c4 3d
       -0.24733448 0.21468656 -0.28125185 0.09570607
0000a0 54 56 38 3e c3 71 82 be 50 3b 88 be b5 c6 1e 3e
       0.18001682 -0.25477418 -0.26607752 0.15505488
0000b0 2c bb 9c 3e a9 8d 75 3d d9 80 50 3e ea f8 2c be
       0.3061155 0.05994955 0.20361651 -0.16891828
0000c0 b3 0b 85 3e 37 ad b0 bd f3 20 2f be 0d 1b 93 3e
       0.25985488 -0.08626788 -0.17102413 0.28731576
0000d0 49 6a 91 be 57 4d e5 bd 9f a7 17 bb 7c 19 39 3d
       -0.28401402 -0.11196392 -0.0023140681 0.04519032
0000e0 27 9b 90 3d b8 d4 98 3d 1f e0 ab bd 84 95 af bd
       0.07060843 0.07462448 -0.08392357 -0.0857344
0000f0 18 04 85 be c6 17 d8 3b b8 95 b4 3c 80 66 6a be
       -0.25979686 0.006594631 0.022044048 -0.22890663
000100 18 00 10 3e 49 06 75 3e dc 8f 83 be ec 43 6a 3e
       0.14062536 0.23928179 -0.25695693 0.22877473
000110 54 1c 75 3e 02 6f 2b 3e 9e a4 3e b8 d2 45 50 be
       0.23936588 0.16741565 -4.545284e-05 -0.20339134
000120 07 01 c5 bd 62 e9 4f be 53 e6 76 3e 8d a6 ed 3d
       -0.096193366 -0.20303872 0.24111299 0.11604033
000130 be e5 91 be a4 f0 80 bc d5 41 3b be 5a 8e 85 be
       -0.28495592 -0.015739746 -0.18286832 -0.26085168
000140 b0 bd 41 be 75 3a e5 3d eb e7 a4 3e 32 f0 3e 3a
       -0.18920016 0.111927904 0.3220819 0.00072837167
000150 f3 cb 53 3e bc d5 bf bc dc f4 06 3e 30 68 34 be
       0.20683269 -0.023417346 0.13179344 -0.1761787
000160 15 1f 50 be a2 94 0c 3e 79 b9 71 3e af 01 7d 3d
       -0.20324357 0.13728574 0.23605908 0.061769184
000170 58 47 e6 bd cc be ea bd 86 6c 37 be a8 ca 8e 3e
       -0.112440765 -0.11462173 -0.17912492 0.2788899
000180 1e b4 5d 3e 5a b7 04 be cf 69 39 3e 16 80 d7 bc
       0.2165074 -0.12960568 0.18106769 -0.026306193
000190 50 0b 45 be 50 b4 80 be 24 d8 2a 3d 23 40 a2 bd
       -0.19242597 -0.25137568 0.041710034 -0.07922389
0001a0 45 30 30 be 3a a8 7d be 6d 66 30 bd 4b 75 94 be
       -0.17205913 -0.24771205 -0.04306643 -0.28995737
0001b0 6c 91 28 be 02 bb 87 3e 14 b5 96 be 7d 75 41 3e
       -0.16461724 0.26509863 -0.29435027 0.18892474
0001c0 72 b0 12 be 38 b7 cc bd b0 f2 95 bd 90 1c 71 3e
       -0.14325121 -0.09995884 -0.073216796 0.23546052
0001d0 9f c7 01 bd ab 52 dc bd ff bf 13 be fc a5 5f be
       -0.031684514 -0.10757955 -0.1442871 -0.21840662
0001e0 2e 0a 9c 3e 36 6d 8c 3d d3 70 29 bb 3f 28 5d be
       0.30476516 0.06856768 -0.0025854602 -0.21597384
0001f0 cc a2 7f be 42 ca 97 be ef eb ab 3d 47 94 89 3d
       -0.24964446 -0.29646498 0.0839461 0.06717735
000200 67 c3 1d 3e ef de b2 bc b0 b1 13 be 22 a0 90 be
       0.15406571 -0.021834819 -0.14423251 -0.28247172
000210 c6 10 83 be 2a 26 2a 3e 7c bd a3 3c 79 14 1d 3e
       -0.25598735 0.16616121 0.019987814 0.15339841
000220 6e 2c 0b be c3 ba ef 3c a6 22 e6 bd 1d 38 13 3d
       -0.13591167 0.02926386 -0.112370774 0.035942186
000230 1e ff 89 3d 18 42 27 bd be fa e0 bd 99 23 2e bd
       0.06738113 -0.040834516 -0.10985325 -0.042514417
000240 18 20 03 3d 27 96 10 3e 10 82 86 be 42 31 89 be
       0.03201303 0.14119779 -0.26271105 -0.26795393
000250 4f 39 e3 bd 6e 9a 8b be ce 20 71 be 96 95 8c be
       -0.11094915 -0.27266258 -0.2354767 -0.27457875
000260 f5 d4 65 be 13 d0 ba bc 76 9f 66 3e 2a 55 85 3d
       -0.22444518 -0.022804296 0.22521767 0.065103844
000270 5b a5 6b 3c 4b 66 11 bc bd 58 77 3e f9 cf 13 be
       0.014382686 -0.008874486 0.24154945 -0.14434804
000280 7f bc 12 3e b8 39 26 3e a5 24 0a be 55 5c 8a bc
       0.14329718 0.16232955 -0.13490541 -0.01688973
000290 3a 55 ce bd e6 83 6e 3e 2e af 61 3e 3e fb 09 be
       -0.100748494 0.23292503 0.22039482 -0.13474748
0002a0 58 b6 7a 3e 0e 10 8f be c1 08 a4 be 91 44 1e be
       0.24483621 -0.27941936 -0.3203793 -0.15455844
0002b0 6a fd 4e be 90 06 93 be 0c a8 da bd 4a 7f 86 3e
       -0.20213857 -0.28715944 -0.10676584 0.2626899
0002c0 16 88 0c 3e c1 5a 81 3e 25 32 2a be 5b d6 8b 3e
       0.13723788 0.25264552 -0.16620691 0.27311978
0002d0 13 12 85 be 85 f0 90 be 8a 5d 76 be 49 e3 04 3e
       -0.25990352 -0.28308502 -0.2405912 0.12977327
0002e0 ea 92 79 3c 6b 40 a8 bc 6b 7a 87 be d2 0e 87 bb
       0.015232781 -0.02053853 -0.26460585 -0.0041216398
0002f0 e4 91 8c be 57 70 32 be ad 5e 7c 3e b1 19 18 3e
       -0.27455056 -0.17425667 0.24645491 0.1485355
000300 1b 1f 91 3e e2 4d 85 3e 62 9b 33 3e 6b f9 fd bc
       0.28344044 0.26035982 0.17539743 -0.03100272
000310 ce 65 e6 3d 4b ef 6b be fe 34 de 3d 8f 96 b0 bc
       0.112498865 -0.23040502 0.10849951 -0.021556167
000320 9b 3b 27 be 75 b1 9c 3e 6e c4 8f 3e 52 38 2d 3e
       -0.16331331 0.3060414 0.2807955 0.16916016
000330 d3 9e 33 bd 7e ba 86 3e 4a 4a 35 be 6b ba 3f 3e
       -0.04385264 0.26314157 -0.1770412 0.18723457
000340 60 df 5f be 02 d0 34 3e 35 19 12 be 81 14 a2 3d
       -0.21862555 0.17657474 -0.14267428 0.07914067
000350 8d 6e 99 be 5f 57 5f 3e cb 9e f4 3d a3 b2 88 3e
       -0.29967156 0.21810673 0.1194435 0.2669879
000360 ea 24 9a 3e 10 4f ae bc ea 03 69 be 7e bb 1c 3e
       0.30106288 -0.021277934 -0.227554 0.15305898
000370 a7 27 68 3e 48 ea 8d be 64 f1 93 bd 7e 0e 81 3e
       0.22671376 -0.27717805 -0.07223776 0.2520637
000380 20 a8 82 bd c4 17 3b 3e 63 e0 bc 3d ce 5f 73 3e
       -0.063797235 0.18270785 0.09222486 0.23767015
000390 95 cc a5 bd fd f0 27 3e a6 d7 aa bd d5 aa 0c 3d
       -0.080956616 0.16400523 -0.08341913 0.034342606
0003a0 18 a0 92 3c 47 f0 04 be 18 26 98 3d 56 87 c3 3d
       0.017898604 -0.12982284 0.07429141 0.09547298
0003b0 46 13 0f be 6c 6c 84 bd 89 d9 17 be 74 c8 e3 3d
       -0.13972196 -0.06465992 -0.14829077 0.11122218
0003c0 4b d4 ff 3d 47 34 01 be cd 37 50 3e 7e cb 9a 3e
       0.124916635 -0.12617598 0.20333786 0.30233377
0003d0 6a 6f 07 3e 1a 50 e2 bd 91 60 12 bc 40 d9 6d 3e
       0.13226095 -0.110504344 -0.008934156 0.23227406
0003e0 9f ae 65 3e 5f 33 88 3d fd 57 55 be 71 68 4c 3e
       0.22429894 0.06650423 -0.20834346 0.19961716
0003f0 ae bc 9c 3e fb e8 4d 3e 16 b5 07 bd 56 b4 54 3d
       0.306127 0.20108406 -0.03313168 0.051929794

_impl.layers.2.linear.weight_g f4 [32, 1]
000000 b2 e2 79 3f e1 61 7b 3f 29 2b 7e 3f 6a 81 81 3f
       0.97611535 0.98196226 0.9928461 1.0117619
000010 44 7e 7a 3f 93 8e 79 3f 2a 82 7b 3f 27 87 82 3f
       0.97848916 0.97483176 0.9824549 1.0197495
000020 aa c9 81 3f d5 c3 7b 3f 3c d6 7f 3f 1e cd 81 3f
       1.0139668 0.9834569 0.9993627 1.0140722
000030 20 89 7b 3f fe e5 81 3f da 0b 7a 3f 25 09 83 3f
       0.9825611 1.0148313 0.97674334 1.0237166
000040 af f4 7f 3f a4 bf 7e 3f fe 3b 7f 3f d9 d7 79 3f
       0.9998273 0.9951117 0.99700916 0.9759498
000050 52 48 7a 3f 7f b2 7c 3f ee f3 81 3f ae a8 7f 3f
       0.977666 0.98709863 1.0152566 0.9986676
000060 28 7e 76 3f 69 17 7c 3f 07 50 81 3f 6b 54 82 3f
       0.9628625 0.9847322 1.0102547 1.0182012
000070 35 15 7a 3f c5 13 82 3f e1 4e 82 3f c8 7e 7b 3f
       0.9768861 1.0162283 1.0180322 0.9824033

_impl.layers.2.linear.bias f4 [32]
000000 8a 51 f7 bb 28 af 83 bc 49 d9 67 bc 6a 69 47 3c
       -0.007547562 -0.016074732 -0.014150926 0.012171129
000010 dd a1 78 ba 32 96 c5 b9 40 b7 63 bc 6d 87 24 3c
       -0.0009484569 -0.00037686672 -0.013898671 0.010042054
000020 01 8b 65 3c 74 6a 50 3c e2 24 78 bc e4 a1 95 bc
       0.014010192 0.012720693 -0.015145512 -0.018265672
000030 91 81 8b bc 00 ca 16 3c 50 26 1c bc d1 fc 56 3c
       -0.017029556 0.009203434 -0.009530619 0.0131218
000040 7d 3b 38 3c f4 b1 20 3c ff d7 3f 3c d8 c3 45 3c
       0.011244652 0.009808052 0.011709212 0.012070619
000050 76 40 6e bc 68 5c a6 3b 26 2a 94 3c 96 68 7b bc
       -0.014541736 0.0050769337 0.018086504 -0.015344759
000060 1d 20 1d 3c ec ad c2 bb 55 91 39 3c bf 23 7f 3c
       0.009590176 -0.0059411433 0.011326154 0.015572487
000070 02 54 8e bc 7a 0f 32 bc ad 37 cd bb 0b 6d 78 bc
       -0.017374042 -0.010867948 -0.0062627406 -0.015162717

_impl.final_layer.linear.weight f4 [1, 32]
000000 d0 09 88 be ac 5a 2d 3d fb 7c 92 3e df 65 d0 be
       -0.26569986 0.0423228 0.28610978 -0.4070272
000010 92 6c 21 bd 9f b7 91 bd 31 4f 7d be a4 7c 33 3e
       -0.03941018 -0.07115101 -0.2473724 0.17528015
000020 19 60 d6 be c7 0e 54 bd ad e2 d0 3e 80 03 af 3e
       -0.41870192 -0.051771905 0.4079794 0.34182358
000030 96 b3 f5 bd 05 b8 c7 3d 30 14 c1 be 9a 64 23 3e
       -0.11997144 0.09751896 -0.37710714 0.15956345
000040 ee c3 b1 bd e9 e2 a4 be 3e b0 4b be 80 15 29 be
       -0.08679949 -0.3220437 -0.1989145 -0.16512108
000050 09 ed 23 be d3 16 b6 be 67 b1 a2 3e d5 ad 16 3e
       -0.1600839 -0.35564288 0.31775972 0.14714749
000060 1f 53 75 be eb 46 37 be a2 38 c7 3e b4 4b 7d 3e
       -0.2395749 -0.17898147 0.38910395 0.2473591
000070 78 73 b4 bb 40 ef 37 3e 5a 49 89 3e 1a 0f 67 bd
       -0.005506929 0.1796236 0.26813775 -0.056410886
